lstm_model.pth (torch, 132386 bytes, 10 tensors)

lstm.weight_ih_l0 f4 [200, 1]
00000000: cfe4 60bb e0bf 9a3e cb8c a93d b461 033e
00000010: d5b6 e13d ed72 d63d 3157 163d a9a0 a4bc
00000020: 1f95 2c3e 0aa7 9a3d 98fe e53c 2c28 0e3e
00000030: 4541 293c cac2 573d a3eb 023c e79d 9ebb
00000040: 596d 71bb 7f3e 093d 3c84 643d 5ba1 bbbd
00000050: 0cdb 9d3d d937 543d 9457 c23d c0b5 96bc
00000060: 9f1e b6bb e843 f03d eccb 0a3e 5fc8 513e
00000070: 1aed 7d3e 01a2 d23b 1a29 bebd 98b1 78bd
00000080: 36ef 1bbd 2159 cebd 8390 abbd 663a ad3d
00000090: 7939 523e 68c2 0e3e 70d5 21bd 40ae 6b3e
000000a0: dce0 30bc 4014 323d 864b 3bbc c995 f0bc
000000b0: dd67 793b 253e 5b3c 5486 443e 8f15 e23d
000000c0: 1e90 ecbb 9b5d 79bd c3f8 37bc 5212 9f3e
000000d0: e661 213e 620e 5d3d 6cf1 8d3d 43a2 c03d
000000e0: c615 26be 3c4d d43d a158 263e 172a bebd
000000f0: 0960 af3d d9e4 7f3d c419 423e 3b05 ebbd
00000100: 3b8c b63c 366b 5dbd e2d8 d1bd f8aa 493c
00000110: 23e9 093e 76ec 0a3c d875 043e 72a4 113e
00000120: 32bb 213e 6005 1d3e 0e86 18be 46af e63d
00000130: 2187 743d 7e70 b33d 2664 04be ab0f c93d
00000140: a6ac 183e 13de 3b3e c60c bdbb da3d 263e
00000150: cbab 233d 7bd3 d1bb 5e32 2e3e e60f 6f3e
00000160: 3331 f93d c3a0 533e 056e d6bc 216a e83a
00000170: 98c2 9a3d 39e1 61bd 4c9a 2cbd f758 d4bd
00000180: 5a24 d03d 9f17 4c3d f626 ae3d c0fa d63d
00000190: 86ee a23c 97ac 763e 7aa2 0c3e 274d 46bb
000001a0: 2bbf dabd 10b1 09be 4b0a 4bbe e9c6 36bd
000001b0: cbe6 34be feae 283e 945a 34be e6a2 08be
000001c0: 8ceb 823d 5c98 493e b32e 3c3e 2529 893d
000001d0: 6130 f2bc 7f9d a6bd ee3a 62bd 73b8 03be
000001e0: f45c 3fbe 25a6 bfbc 3e6a e2bc 7357 50b9
000001f0: b983 febc 3231 9c3e 5005 98bd fc92 703e
00000200: 1f8d 6e3e b0dd db3c 27b1 1bbd 330d e4bc
00000210: a0d1 623e e80c b43c 47dd 2bbb 01e4 37bd
00000220: 9f7d 503e 3a5a 613c c6f9 f03d 8c3b 51be
00000230: bd24 80bb 5688 373d d39d c23c 1322 1e3d
00000240: aca8 e7bd 1c0f cbbd f327 923d 2117 4f3e
00000250: 57f6 4e3e 062b 443e 5a39 9fbc aecc b03e
00000260: f884 a73a f4df 0c3e a1ab 9f3d aefc 1d3e
00000270: 4039 e1bd 01d2 db3d e0ac 47bc 4ae2 ed3b
00000280: 13eb 2bbd 1027 aebd ac08 f7bc be8b 45bd
00000290: cc0e dc3d edca 29bd 40e8 23bc 84e8 fcbd
000002a0: afcc 08be 304a 80bd 1000 4c3e 4bf3 273d
000002b0: 135d 44bd 5711 843d 969c c2bd 2179 803e
000002c0: 3225 283e bf9d c23d 3239 323e c8d1 273d
000002d0: 0d4d ed3c 9a71 dd3d 7101 afbd c4cd 833c
000002e0: 8986 36bd d3dd cf3d acf7 b63d 2989 1a3e
000002f0: f036 8a3d d3e6 173e f661 f03c d990 cb3d
00000300: 7e5f efbd 17b4 61bc f4f7 7c3d 1f50 1b3e
00000310: 39c5 76bd d1ca 17bd 6843 e13c 83f5 5b3d
-0.0034316068 0.30224514 0.08278807 0.1283024 0.110212006 0.10471139 0.036704246 -0.02009614
0.1685376 0.075513914 0.028075501 0.13882512 0.010330503 0.052676 0.0079907505 -0.004840601
-0.0036838858 0.033506867 0.05579017 -0.091616355 0.077077955 0.051811073 0.094893605 -0.018397212
-0.0055578495 0.11731702 0.13554353 0.20486592 0.24797478 0.006428004 -0.09285183 -0.06071624
-0.038069926 -0.10075594 -0.08377173 0.08458404 0.20529737 0.13941348 -0.03951019 0.2301569
-0.010795798 0.043476343 -0.01143158 -0.029368298 0.0038056292 0.013381516 0.19191867 0.11039268
-0.0072193285 -0.060880285 -0.011228743 0.31068665 0.15760002 0.053968795 0.06930813 0.09405949
-0.16219243 0.10366294 0.16244747 -0.09285372 0.08563239 0.062474106 0.18955141 -0.11475607
0.022283664 -0.054057322 -0.10246445 0.0123088285 0.13467841 0.008479228 0.12935579 0.14222887
0.15794066 0.15334082 -0.14894888 0.112638995 0.05969918 0.087616906 -0.12928829 0.098174416
0.1490961 0.18346433 -0.005769345 0.16234532 0.039958756 -0.0064033843 0.17011401 0.23345909
0.12167587 0.20666794 -0.026175508 0.0017731824 0.07556647 -0.05514643 -0.042139336 -0.10368531
0.101631835 0.049827214 0.08503525 0.104970455 0.019889127 0.24089275 0.13733855 -0.0030258389
-0.10680994 -0.1344645 -0.19828145 -0.04462329 -0.17666166 0.16473004 -0.17612678 -0.13343391
0.06392583 0.19687027 0.1837719 0.06697301 -0.029564084 -0.08135509 -0.05523198 -0.1286333
-0.18687803 -0.023394654 -0.02763855 -0.00019869003 -0.03106867 0.30506283 -0.07422888 0.2349357
0.23296021 0.026839107 -0.038010743 -0.027838325 0.22150278 0.02197881 -0.002622442 -0.044895176
0.2036042 0.013754422 0.117663905 -0.20432872 -0.0039106295 0.044807754 0.023756897 0.038606714
-0.113114685 -0.09914991 0.07136526 0.20223667 0.20211159 0.19157037 -0.019436527 0.34531158
0.0012780717 0.13757306 0.077964075 0.15428421 -0.10997248 0.107334144 -0.012187213 0.007259642
-0.04197223 -0.08503544 -0.030155502 -0.04822897 0.1074501 -0.04145329 -0.010004103 -0.12349036
-0.1335933 -0.0626415 0.19921899 0.041003507 -0.047940325 0.0644862 -0.09502523 0.25092414
0.16420439 0.09502744 0.17404631 0.040971547 0.028967405 0.108126834 -0.08545197 0.016089328
-0.044561896 0.101497315 0.089339584 0.15091385 0.0674876 0.14834146 0.029343586 0.09939737
-0.116881356 -0.013775847 0.061759904 0.15167283 -0.06024668 -0.037058655 0.027497962 0.053700935

lstm.weight_hh_l0 f4 [200, 50]
00000000: 4bb7 a63d 359c a9bd 14f4 bbbd 9d0a 873e
00000010: a043 41be 8552 6d3c b770 85bc cdce 583d
00000020: ef18 13bc b96f 44bc 0fde e73d 5589 523e
00000030: a27f 85bd dbe3 53be e3d0 ac3c 67b5 153d
00000040: 4c5a b7bd e0fd 8f3b c9d7 59bb e4ea 94bd
00000050: b341 663c d54c 0cbc 59ca 90bd 6036 cc3d
00000060: 2efa b53d 7352 84bd e26e 053e 6f14 9ebe
00000070: 539e 22be 9b3f 2ebc 4315 173d 716b 4d3e
00000080: 14ad 60bd 2886 a73d 3637 133e 6aa7 113e
00000090: 8133 69be 2fd5 0c3d ec93 5cbd 9890 963d
000000a0: 6c75 6c3e 8598 28be daf6 81bd 2188 1dbe
000000b0: 08dd 183e ad46 343d 5307 61be c3ab c338
000000c0: c33e 20be 4e6d 233e 3226 9cbd 5c5d 283e
000000d0: 0b0e cf3d 017d 343d 4083 643d c255 e93c
000000e0: e294 fb3c 3aa0 1ebd f15d 41bc ab77 3a3d
000000f0: 7e86 75bd f2ad 1abe 3c29 273e 58ea 493e
00000100: d3a0 debc bca5 d93c 3e4d c93d 2bb9 373c
00000110: 5d66 83bd 93e3 29bc 4e2a 3ebd a270 2dbe
00000120: 9045 02be 04c0 d3bd 4659 33bd fa85 303e
00000130: 4ebb 3dbe dc91 3dbd 322d e73c e73a 093d
00000140: ec6d 973d 454c 26be e020 1d3d 0e84 04be
00000150: ac29 70be e6da 79bb 27f0 443d b505 44be
00000160: 3f54 133e b974 07be ac78 13be cda3 c5bc
00000170: c94d 05be 8830 3c3d 376a c4bc 385b 67be
00000180: ca2c b83d e8bd c53d fe2f 523e 260a cfbd
00000190: 43b9 753c dac8 78bd 5f3a 8f3d 3c18 45be
000001a0: 402f 8cbd 87bc 383d 2ef5 20bb 2a80 153c
000001b0: 505e 93bd a066 683b fc7f 22be 6218 13be
000001c0: a267 83bc 1462 c33c 2270 febd 0e74 c33d
000001d0: 3bee e13d 9ad7 0bbe 0f2d fe3d e6cf da3b
000001e0: 4e73 c7bd 6349 1ebe 942d c83d 278b 99bd
000001f0: 75c8 81bd 865e 143e 3911 b33d 2d73 4c3e
00000200: a4f9 aa3d 013f 393b 4be9 503c 2d82 7bbc
00000210: dc30 a63d 6ebd 853c d89c a93d 8656 f13d
00000220: 5787 e8bc d94b 3fbd 4673 0a3d 44d4 0fbe
00000230: 1be6 e63d 7d2d 0cbd 123f e43d e944 1bbd
00000240: 8451 20be 470e cbbd c812 efbd 2dc4 c8bc
00000250: 555b 5fbd 4171 0cbe 641f d7bc 1843 79ba
00000260: fcbe d33d da7b 29be 5004 e13d e13d 96bd
00000270: 2a5d a33d cff3 f43d 3273 a6bb f1eb 173e
00000280: 30ee 003b 2c7e 0abe f78e 5c3e 1ba7 bd3d
00000290: 6e1a 553b bae9 093d 1111 e3bd f4cf a83d
000002a0: f062 0c3e d17a bf3d 1a2b cdbc 7ff0 70be
000002b0: 4c97 03be a323 cebc 846b 243e d471 bfbc
000002c0: c04a acbd 555f ca3c f37f 183e f1b3 37bd
000002d0: afa4 1a3e fe86 adbd 188a 543d 9e3f 59be
000002e0: 0190 5ebd cd80 24bd 3e51 233e 8980 dbbd
000002f0: d3c6 2f3e e81c 063e 136a 42be 154e 00be
00000300: f647 4cbe e8e0 c3bc 0841 0a3d 0a25 343d
00000310: 9a3e 1b3e 4382 a6bd b0bf b53d fbf9 16be
00000320: aa2c 4ebc 2ef9 4b3e 24bd ba3d 2c88 bb3e
00000330: ea41 85be 4703 b23d 3da5 2fbe c61e 1e3b
00000340: 0614 18bd 4877 e33d dde1 11bd 21d1 3fbd
00000350: 12bd 82bd 1ef7 2f3e b4aa 99bd 4bd3 a13d
00000360: 5c3b 0fbe bb9f 0fbe 9af7 61bd 72aa 543c
00000370: 920c 11be 3cdb 203e 5469 00bb 609f 5f3e
00000380: c669 1abd 9a78 cd3e fdde 053d 3856 c7bb
00000390: 9130 483d 2814 e63d 42a5 02be 0265 233e
000003a0: 1eb2 a9bd a63d f13d 5bc1 973d 93d3 033e
000003b0: ab95 5abd 156a 7a3c ebc7 193e f289 5fbe
000003c0: 82d4 23bd f3d9 8ebd 2197 e1bd 01c5 c0bd
000003d0: 50f1 e93d 55ed de3d f761 d73d b660 0a3e
000003e0: db82 da3d d926 173d faec 073e 432d d53d
000003f0: 45c1 bdbc 07dc 50bd 828b 1f3d 2517 e63d
0.08140429 -0.08281747 -0.091774136 0.26375285 -0.18873453 0.014485006 -0.016289098 0.052931596
-0.008978113 -0.011989527 0.11321651 0.205602 -0.06518485 -0.20692389 0.021095699 0.036549952
-0.0895277 0.004394278 -0.003324019 -0.07271364 0.01405375 -0.00856324 -0.07069845 0.09971309
0.088856086 -0.064610384 0.1303058 -0.30874965 -0.15880708 -0.010635282 0.03688551 0.20060517
-0.05485256 0.08179885 0.1437653 0.1422402 -0.22773553 0.034382995 -0.053852007 0.07351798
0.23091668 -0.16464432 -0.06345911 -0.1538396 0.14928067 0.044012714 -0.2197545 9.330318e-05
-0.15648942 0.15959665 -0.07624473 0.16441864 0.101101 0.044064526 0.055789232 0.028483275
0.030710641 -0.038727023 -0.0118021825 0.04552428 -0.059942715 -0.15105417 0.16324323 0.19718301
-0.027176296 0.026568286 0.09829186 0.011213581 -0.064160086 -0.010369199 -0.046427064 -0.16937497
-0.12721848 -0.103393584 -0.04378631 0.17238608 -0.18528482 -0.04628168 0.028219793 0.03350344
0.07394013 -0.16240032 0.03836143 -0.12941 -0.23453397 -0.0038124858 0.04808059 -0.19142802
0.14387606 -0.1322812 -0.14401501 -0.024125958 -0.13017954 0.04594472 -0.023976428 -0.22593391
0.08992918 0.09655362 0.2052612 -0.101093575 0.014997783 -0.060738422 0.06993555 -0.19247526
-0.0684495 0.04510167 -0.00245602 0.009124795 -0.07195723 0.003546156 -0.15869135 -0.1436477
-0.016040627 0.023850478 -0.124237314 0.0954362 0.11031767 -0.13656464 0.12410938 0.0066776155
-0.097387895 -0.15457682 0.09774318 -0.07497244 -0.06337062 0.14489183 0.08743519 0.19965811
0.083483964 0.0028266313 0.012750934 -0.015350861 0.08114788 0.016325679 0.08281869 0.11784081
-0.028384848 -0.046703193 0.03380134 -0.14045817 0.11274358 -0.03422307 0.11144842 -0.037907515
-0.15656096 -0.099148326 -0.11673504 -0.024507606 -0.05453046 -0.13715078 -0.026260085 -0.0009508594
0.10339162 -0.16551152 0.10987151 -0.07336021 0.07976754 0.11960565 -0.0050796503 0.14836098
0.001967322 -0.13524693 0.21538912 0.092603885 0.0032516974 0.033670165 -0.110872395 0.08242789
0.13709617 0.09349597 -0.025044966 -0.23529242 -0.12850684 -0.025163477 0.16056639 -0.023369707
-0.08412695 0.024703661 0.14892559 -0.04484934 0.15101884 -0.08473013 0.05188951 -0.21215674
-0.05433655 -0.040161896 0.1594896 -0.107178755 0.17165689 0.13096964 -0.18985777 -0.12529786
-0.19949326 -0.023910955 0.033753425 0.043980636 0.151606 -0.08130314 0.08874452 -0.14743797
-0.012583891 0.19919273 0.09118107 0.36627328 -0.2602685 0.08692031 -0.17152877 0.002412723
-0.03712847 0.111067355 -0.03561579 -0.0468303 -0.063837186 0.17184111 -0.07503262 0.07901629
-0.13987488 -0.14025776 -0.055167772 0.01298009 -0.14164951 0.15708631 -0.001959403 0.2183814
-0.03769853 0.40131074 0.03268336 -0.006083276 0.04887444 0.11234313 -0.12758353 0.159565
-0.08285926 0.11779337 0.074099265 0.12873678 -0.05336539 0.015284081 0.15017669 -0.21829966
-0.039997585 -0.06975164 -0.11015154 -0.094125755 0.1142298 0.10885111 0.10516732 0.13513455
0.1066949 0.036902282 0.13273993 0.104090236 -0.023163447 -0.050991084 0.038951404 0.11234883

lstm.bias_ih_l0 f4 [200]
00000000: c46c 3ebe 0326 0b3e d8ef 8f3d 58c5 c53d
00000010: 3071 c53c e341 a73d c6bc 08bd 8eb6 b43d
00000020: 9ed5 163d 0c2b af3d 4445 dbbd acd4 47bd
00000030: fc94 1f3d 5f2a 01be 0da8 df3d 3949 11be
00000040: 1e4c 9cbd ee74 52bd 4851 18bd c399 20bd
00000050: 2a75 0fbd 45cf 733d a415 c4bb 66ad 4c3d
00000060: fc77 babd 6c70 1a3e de50 43bc a61d 9f3e
00000070: 63c9 1c3d 89f7 64bc ad8c c43d 84a8 b73c
00000080: e9cc d73d a69f fbbd 3b36 953d 9dae 51bd
00000090: 461e 3c3d 8e92 49bd ab48 a93d 50a5 a83a
000000a0: fff3 ec3d d4d8 afbd ec72 bcbd 1a81 8abd
000000b0: ad6c c3bd 3155 163d 6f31 fd3d e389 9f3d
000000c0: 3004 943d afee cb3d 2947 39bd 7949 ef3c
000000d0: 0edd e7bc e49b 433e 3e36 1e3d c409 b8bd
000000e0: bc41 a33d f623 32be ff5d 94bd 1110 073e
000000f0: 50f3 b53d cc1d 22bd f402 ee3d a878 953c
00000100: 3bfb a3bd aeaf cc3d 904f a4bd 84cd 6fbc
00000110: ea18 013e aadf 18bd 4a74 a8bd 6233 88bd
00000120: 7533 70bc 1f73 c3bc 44c8 0dbe ee0c 683c
00000130: 7616 84bc 7daf 143e db7a 2d3e 6016 e83d
00000140: 9100 c73d 04b9 b43d 01cb 613d 5a00 8d3d
00000150: 4876 843c f6eb 103e 9ffc 9f3d b025 163e
00000160: 00a8 6b3d 5d37 f13c 1c76 66bd ca17 1dbd
00000170: 050b 8d3d 3f30 27bd 773f 4abd cb69 aebb
00000180: c66f 133e 90d2 91bc ea12 0cbd aa3c 763d
00000190: e19f e23c d9f1 ec3d 7bee 583d 2780 d03d
000001a0: 4a8c 3b3d 758d eabd f4f8 933d 9609 633d
000001b0: 1a84 fdbd 34e9 98bd 1321 023d 294e 973d
000001c0: dfab f8bc 7ccc 95bc ccaa e0bc b100 48bd
000001d0: 599c 183c f145 db3d 1ff0 623d 3177 c83d
000001e0: 3202 66bd bcb7 9cbd f06c 9d3d 9d3d ddbd
000001f0: 253f c73d d917 c3bd 2c97 203d dc6b 09be
00000200: c545 08be 2bd5 e6bd b4b3 393d 324b c43d
00000210: b1be c83c 3e61 9fbd 2e98 0fbd fbc7 68bd
00000220: b1b9 8dbd cc6c a73d 7540 0b3d 72f1 5abd
00000230: 9cb9 9dbd 273f 693d 71c1 68bd 4dbb 3a3d
00000240: 721d 05be ef7e 0ebe dea8 623d 508e d3bd
00000250: 917c a2bd 35bf c6bc ed3d 95bd 818c 5c3d
00000260: 8473 e13d 9deb 0c3c 84fe abbd 9bb4 e1bc
00000270: 5c50 04be fba2 b1bb 287a dfbd 8683 13bc
00000280: 6414 fcbd 25b3 03be 61ed 523d e2b6 763d
00000290: 3b21 77bd a81b 68bd eaf6 d33d 677c f73c
000002a0: 17ec ed3c 61bd cc3d 6337 aa3d 4b92 f53c
000002b0: 7b04 993d b106 903d 5d41 8fbd 018e d33d
000002c0: dd29 773b dfa0 d43d 451f d73d 4a78 cf3d
000002d0: a554 2fbd 78f7 6b3d 4f3d 2f3d b2a0 143e
000002e0: b34d c63d c6c0 353c 21e1 bfbd ee7c 163e
000002f0: 1e06 103d 8922 f03d c7d0 54bd 2cbb 62bd
00000300: 6c84 edbd b3b1 8d3b 457d 683d ea40 d5bd
00000310: 34cf e5b9 bb2c ac3d 18cf 1a3e d3b8 82bd
-0.18596178 0.13588719 0.070281684 0.09656781 0.024101824 0.08166864 -0.033383153 0.08823882
0.036824815 0.085531324 -0.10706571 -0.048786804 0.038960442 -0.1261382 0.10920725 -0.14188088
-0.07631706 -0.051381044 -0.03718689 -0.03920914 -0.035023846 0.05952384 -0.005984025 0.049970053
-0.091049165 0.15081948 -0.011921136 0.31077307 0.038277995 -0.013975033 0.09597144 0.022419222
0.105371304 -0.1228631 0.07285734 -0.051191915 0.04592731 -0.04921203 0.082658134 0.001286665
0.11569976 -0.085862786 -0.09201607 -0.067629054 -0.09542213 0.03670234 0.12362944 0.07789972
0.07227361 0.09957635 -0.04523388 0.02920984 -0.02830365 0.19102436 0.038625948 -0.08986238
0.07971522 -0.1739653 -0.07244491 0.13189723 0.08884299 -0.039579198 0.11621657 0.01824601
-0.08006903 0.09994446 -0.08022988 -0.014636401 0.1260716 -0.037322678 -0.082253054 -0.066504255
-0.014660706 -0.023858605 -0.13845927 0.014163239 -0.016123991 0.14520068 0.16941397 0.11332393
0.09716905 0.088243514 0.05512524 0.06884833 0.016169682 0.14152512 0.078118555 0.14662814
0.057533264 0.029445345 -0.05626498 -0.038352765 0.068868674 -0.040817495 -0.04937693 -0.00532267
0.14398107 -0.0178006 -0.034197725 0.060116448 0.027664127 0.11569566 0.052961808 0.10180693
0.045788087 -0.11452762 0.072252184 0.055429064 -0.12378712 -0.07466355 0.031769823 0.07387955
-0.030355392 -0.018285982 -0.027425192 -0.048828784 0.00931462 0.107067 0.05540478 0.09788359
-0.056154437 -0.07652232 0.07686794 -0.108027674 0.09728841 -0.09526033 0.03920667 -0.13420051
-0.13307865 -0.11271127 0.045337394 0.09584655 0.024504991 -0.07782219 -0.03505724 -0.05683134
-0.069201834 0.08175048 0.033997018 -0.053452916 -0.07701418 0.056944992 -0.056825105 0.04558878
-0.12999514 -0.13915609 0.055336826 -0.10329878 -0.079339154 -0.024261096 -0.07287202 0.053844932
0.11008361 0.008601096 -0.083981544 -0.02755194 -0.1292128 -0.00542104 -0.10911971 -0.009003526
-0.12308577 -0.12861307 0.051495913 0.060233004 -0.060334425 -0.056667 0.103498295 0.030210687
0.02904324 0.09997059 0.083113454 0.029976984 0.07471558 0.07032526 -0.06994889 0.103298195
0.0037714161 0.10382246 0.10504011 0.10130365 -0.042805333 0.05760905 0.042783078 0.14514425
0.09682789 0.011093324 -0.09369112 0.14696094 0.035162084 0.11725337 -0.051956918 -0.055354282
-0.11597523 0.004324162 0.05676009 -0.10412772 -0.00043832662 0.08406969 0.15118062 -0.06382909

lstm.bias_hh_l0 f4 [200]
00000000: fad9 dfbd 60ce 4a3e d661 debc 349c 093e
00000010: 9788 cd3d 0100 c43c 00c6 443d fdb3 91bc
00000020: 46a1 43bd c287 6b3d 6f8d 04be b2d3 cc3d
00000030: eac8 95bd 2699 c5bd d35b 473d 9280 08bd
00000040: 6d3a c23d 669d aebd ef04 173d 1b52 c4bd
00000050: 069c dd3d 0b35 713c 261a 063e caa0 f83d
00000060: 636e aebd 3b23 613d f741 613d c00a 663e
00000070: 9b9a bc3d 36f4 87bc b7ed b8bd 467d d3bd
00000080: bf26 33bc 8241 89bd 3593 f8bd da01 f23d
00000090: 8157 253e a513 b1bc ab32 ef3d a87e d63c
000000a0: 2861 263d f603 b63d a2f4 17be f190 9bbd
000000b0: 2ff9 f7bd a40a dfbd 8299 55bc fded 233e
000000c0: b3d2 4b3d e015 f6bd 9292 3fbd c1e8 4a3e
000000d0: 2eb7 f93d 8b88 d03d 1e88 8fbd 3aee 83bd
000000e0: f830 debd 485a 9ebd bba5 7e3d 0440 6e3c
000000f0: 6a0b 22bb 89ef ca3d e850 193e ebed 1b3d
00000100: e17f c43d 6393 d8bc e6f8 c83d 819b c13d
00000110: 3844 ddbd bdd7 e73b 2481 ebbd a540 123e
00000120: 7690 89bd b1db 84bc a3cb 4dbd 33c1 043e
00000130: 7d89 edbd 9ef4 b43e 4729 273e 248d 8e3d
00000140: 9781 3cbd e6ba dd3d 4547 8c3d ff20 ce3b
00000150: 3a9a f8bd ec89 e7bd a965 a23c d3fa de3d
00000160: d6d2 75bd 8d08 bfbd 4938 67bb af65 84bc
00000170: 70c3 26bc 8bb8 c0bc 19e2 70bc b32f 803d
00000180: 168c e5bc 78e5 663d 5297 503d e6d0 16bd
00000190: a5ca 27bd 0ca9 46bd 1e05 ea3d c03b 183d
000001a0: bf20 b23d 3e59 393c 74f6 993d 45d7 9f3d
000001b0: ebc6 e3bb 9a5f 8b3d 6eee db3b 900d 5bbd
000001c0: e8fa 90bb be18 9dbd a7f5 f33d eb46 49bd
000001d0: 04de bc3d d76c c63c 7917 753d fdd4 d73d
000001e0: 1226 b2bc 315f 0ebe 5002 d5bd bc23 6a3d
000001f0: 926a 2e3d 154b c6bd 6420 f1bd 251f dcbc
00000200: 983d 4a3c 1101 d63d 6c0c ad3c 1327 03be
00000210: 9c34 05be 1565 0bbe ca10 57bd 3c67 733d
00000220: d68e 093d 1eb5 02be 3a7c 033d bd66 f23d
00000230: 17bb 0fbd e75e 8b3d 65bd bb3d 634d cf3d
00000240: e65d 0a3e 401b ddbd 2058 183d e6f5 b63c
00000250: eb7a 583d 0173 e3bd 16e3 eabd 1253 873c
00000260: 4c47 b8bd b38e 0b3e cba0 7ebd 4f77 103d
00000270: 41ff 243d 093d ea3b 79c6 abbc fd47 acbd
00000280: 75ef 04be e1cf d43d b66d 97bd 19bd 72bd
00000290: ef0b e93d 4637 f43d ba0a 943d cf2c 0abe
000002a0: 14ab e0bd 23a7 cfbd 1f82 b6bd 653d 973d
000002b0: 85ed 8dbd 374b 30bc e006 fcbd 234c 403d
000002c0: c83a 00bc 49e3 fd3d 8031 1d3d 353c 343b
000002d0: bb83 81bd d471 c83d c823 b7bd dfd9 e4bd
000002e0: 5dc6 0cbe a559 febd f7fe 8ebc 5939 8f3c
000002f0: e495 8fbd ce3f 153e 61ce a53d 74ff 2f3c
00000300: 1a56 ad3d 0dc6 e1bc 8026 febd 464f c13d
00000310: a4b8 eabc aa54 153e ab44 5ebd c740 d7bd
-0.109302476 0.19805288 -0.027146261 0.13438493 0.10035818 0.023925783 0.04804039 -0.01778602
-0.047761224 0.057502516 -0.12944578 0.10001315 -0.07313712 -0.09648351 0.048671555 -0.03332574
0.094838 -0.08526115 0.03686994 -0.09585973 0.10820775 0.014722119 0.13095912 0.12140043
-0.08517148 0.05496524 0.05499455 0.22465038 0.09209176 -0.016595941 -0.090297155 -0.103266284
-0.010934531 -0.06701948 -0.121374525 0.118167594 0.16146661 -0.021615813 0.11679586 0.026183441
0.04062 0.08887474 -0.14839414 -0.07596005 -0.12108075 -0.108907014 -0.013037087 0.16008754
0.049761485 -0.12015891 -0.04677064 0.19815351 0.12193142 0.101822935 -0.07008384 -0.064419225
-0.10849184 -0.077320635 0.06216977 0.01454163 -0.0024726042 0.09908969 0.1497227 0.038068693
0.095947035 -0.026437467 0.098130986 0.09453488 -0.10804027 0.0070752786 -0.11499241 0.14282472
-0.06717007 -0.016218038 -0.05024303 0.12964325 -0.115984894 0.35342878 0.1632434 0.06960514
-0.046022024 0.10826664 0.06849531 0.0062905545 -0.121387914 -0.113056034 0.019823866 0.10887685
-0.060015522 -0.09327803 -0.0035281351 -0.016161768 -0.010178432 -0.023525497 -0.014702343 0.06259098
-0.0280209 0.056371182 0.05092556 -0.036820315 -0.04096474 -0.04850106 0.11426757 0.037166357
0.08697652 0.011312781 0.0751771 0.07804731 -0.006951203 0.06805344 0.0067117726 -0.05347973
-0.0044244416 -0.07670735 0.11912089 -0.0491399 0.092220336 0.02422182 0.05983684 0.10538671
-0.021746669 -0.139035 -0.10400832 0.057162985 0.042582102 -0.096822895 -0.11773756 -0.02687032
0.012343787 0.10449422 0.021124087 -0.12807874 -0.1300835 -0.13612778 -0.052506246 0.059424624
0.033583485 -0.12764403 0.032100894 0.11836002 -0.035090532 0.068052106 0.091669835 0.10122182
0.13512382 -0.10796213 0.037193418 0.02233405 0.0528516 -0.1110592 -0.114690945 0.016519103
-0.08997974 0.13628654 -0.062165063 0.03527003 0.04028249 0.0071483892 -0.020968663 -0.08412168
-0.1298197 0.10391212 -0.073939726 -0.05926237 0.11379229 0.11924605 0.072286084 -0.13493656
-0.109701306 -0.10139301 -0.089115374 0.07384757 -0.06930069 -0.01076012 -0.12305999 0.04694761
-0.007826515 0.12396867 0.038377285 0.0027501706 -0.06323954 0.09787336 -0.089423716 -0.11174368
-0.13747545 -0.12419442 -0.017455561 0.0174834 -0.07011011 0.14575121 0.08096004 0.010742057
0.08463688 -0.027560258 -0.12409687 0.09438948 -0.028652497 0.14583078 -0.054264706 -0.10510402

lstm.weight_ih_l1 f4 [200, 50]
00000000: e73f 02bd a4d5 a0bd 94a7 863d 3342 04be
00000010: 734f 7f3d e981 3c3d 1a22 293d 87df 083c
00000020: 6c60 abbd bf05 be3d b9ed 963d 5de5 e7bd
00000030: d7ec e6ba 79fc a6bc ca29 71bd f1d2 843d
00000040: 5eae b33d afe6 a73b a1a4 023e 9bf4 b83a
00000050: c628 1bbd 729c 863b 5c4c 5ebc b12e d03b
00000060: 20fb b73d f773 883b e046 b63d f0ee 2fbe
00000070: 8a2c 4b3d 9176 0bbe 03b9 fbbd a86f ae3d
00000080: b18b c2bd ee04 2e3d 87c1 c93d 411a ce3c
00000090: 9ff8 9c3d fd48 d2bd 5156 b53d d3c7 2c3c
000000a0: 5a86 6fbb f2cf e2bd 3905 64bd 5067 0ebe
000000b0: 2eb5 b9bd 2513 3fbd 7f96 013e d35f cbbd
000000c0: 792b 67bd c8a7 07bd 14f8 48bd 299b b43d
000000d0: e356 7f3d 5a28 093e f5c1 4fbd a84a 0abd
000000e0: 9dc7 e53c 6e51 a6bd a54c 5fbb 56f7 843d
000000f0: aed3 963d ef9b f03c dfab 40be fc65 263c
00000100: 4d96 043c bdd8 1cbd ba5c b2bd 0c13 fbbd
00000110: 9f5e 37be 0610 77b8 a717 8dbd c994 74bd
00000120: a1d2 813d 1dd3 c03d 55ae 3ebe f00b 5f3e
00000130: c97b bf3d 213d fb3c 8f9b 4cbd 7374 76bd
00000140: 6475 913c 58cc 3f3e 0142 ff3d 283e 3eb9
00000150: ab61 a6bd f9bc 6fbc b3fd d53c de3d 123e
00000160: eb4d 08be b7eb d13d 14ff 14bd aa46 aabd
00000170: 8b14 0fbe e0b8 743d 88c1 c73d 36ee 953d
00000180: 77fc 30be 5ccf 8c3c d3c2 6fbd a1e8 06bc
00000190: fb9e 86bd 9d3a debd 567f 87bd 4562 bf3d
000001a0: ceca 04be 2b54 c5ba bb7c eb3d c1fd c2bd
000001b0: 6245 cebd e79d b6bd f7fb c9bc 0142 703d
000001c0: 9979 da3d 4e06 c53d c36a 34bd 13e9 633b
000001d0: f60a 8a3d bd26 a23c 6ca1 2a3d 4df7 6ebd
000001e0: ab85 573d b4d8 ce3d 61a3 663d 6eab 1b3d
000001f0: 67bd b7bd 432b 9dbd 5bfe cbbd 3af0 fa3d
00000200: daf0 c83d 9df4 7c3d 9976 713d fe25 59bd
00000210: 2f6b d73d 6631 e6bd d8e8 e9bd c472 94bd
00000220: 2c09 a5bc 57ab b03d d164 983d a576 88bd
00000230: 6080 a93b 87d2 5f3d 2a30 67bd 493c bd3b
00000240: bc05 003e 9dc6 273d fc89 3bbd a9dc 84bd
00000250: 8a49 7bbd 9b58 133e 905e b83c 8f7f ab3d
00000260: 91ad 053d 3566 91bc bc44 053e 5295 c6bd
00000270: 008c 213e 72bb 43bd 121a babc fbbc 073d
00000280: 2d4d d9bd fa21 0ebd 9678 543d fe6a 0f3e
00000290: b0c5 7d3d b23d aabb 91a4 b8bc f34c 413c
000002a0: 4617 713d fc2c 603b 28ed 23be a1ec 153c
000002b0: 6b77 343d 06fe 46be e753 15bd e151 9abc
000002c0: 397a 1bbe cfd7 953e 57fb 7b3d 6e15 9abd
000002d0: 1aa9 683c adf4 2d3d 8bc7 a23d 7c91 01be
000002e0: 09eb 893d dede d93c e734 15bd ff5b 1bbe
000002f0: 4bf1 45bd 101f a33d 9efe 33bd ba69 9cbd
00000300: 4f88 febb eb87 2c3e 9df4 55bd 529f 4abe
00000310: 349e 303e f377 2a3e 5007 003d 4acc 503d
00000320: 6f3f 493d 0e2c 293e aba0 173d b47d 1e3e
00000330: a6cd 373e 7168 8b3c 7226 3b3c f48c be3d
00000340: fec1 0e3c 077a 8fbb 335c bfbd 3d82 4fbd
00000350: 6867 383a 8745 cabd 4e71 913d 721f d9bd
00000360: 3a05 423d ce35 34bd 24ac fc3c ba6f 3fbd
00000370: d047 23be 54a3 2cbe 4e2f d03c db22 09bc
00000380: 32d8 293d 70db 8dbd 609b 273d 919d f3bd
00000390: 4dcf 80bb cfb3 8bbd 593d 65bd 1793 8d3d
000003a0: 52bc c13d 0565 20be 0e1f c13d 632a f83d
000003b0: c8ad 1d3e bf8f 04be 9cd5 9a3d 09f7 a93d
000003c0: 59b5 e4bd eeeb 203d fb96 fd3d a5a4 2d3e
000003d0: d8e1 aabd f794 abbc adaa ddbc 029b 243e
000003e0: cceb 123e 1356 d33d 8825 9bbd 8acd ed3d
000003f0: 52d1 e3bc 4f18 aebd 42f9 833d 3ab3 d93d
-0.031799223 -0.07853249 0.06574932 -0.12915878 0.062331628 0.04602233 0.041292287 0.008354074
-0.083680004 0.0927844 0.07369561 -0.113230444 -0.0017618191 -0.02038406 -0.058877744 0.064855464
0.08773492 0.005123935 0.12758113 0.0014110984 -0.03788068 0.004108005 -0.01356801 0.0063532223
0.08983445 0.0041642147 0.08900237 -0.17180991 0.049603023 -0.13619448 -0.122911476 0.085173905
-0.094993 0.04248517 0.098513655 0.025159003 0.07664608 -0.10267828 0.08854354 0.010545689
-0.0036548586 -0.11074819 -0.055669043 -0.13906598 -0.090677604 -0.046649117 0.12655066 -0.099303864
-0.056437943 -0.033118993 -0.04906471 0.08818657 0.06233872 0.13394299 -0.05072208 -0.033762604
0.028049285 -0.08121 -0.0034072783 0.06492488 0.073645934 0.02937123 -0.18815564 0.010156151
0.008092475 -0.038292635 -0.087090924 -0.12259492 -0.17907189 -5.8904312e-05 -0.06889277 -0.059712205
0.063390024 0.09415267 -0.1862119 0.21781898 0.09349782 0.030668797 -0.04995304 -0.06016965
0.017756172 0.18730295 0.12463761 -0.00018142967 -0.081240974 -0.014632457 0.02612195 0.14281413
-0.13310973 0.10250037 -0.036376074 -0.08314259 -0.1397268 0.059746623 0.0975371 0.07320826
-0.17283808 0.01718872 -0.05853541 -0.008234174 -0.06573292 -0.10851023 -0.06616084 0.09344915
-0.12967989 -0.0015054991 0.114984 -0.09521056 -0.100718275 -0.08916836 -0.024656279 0.058656696
0.10667724 0.09620343 -0.04404713 0.0034776374 0.06740372 0.019793862 0.04165785 -0.058341313
0.05261771 0.100999266 0.056308154 0.038005285 -0.089716725 -0.07674267 -0.09960624 0.12252851
0.09811564 0.06175672 0.058950994 -0.053014748 0.105184905 -0.11239891 -0.114213645 -0.07248452
-0.020145975 0.086264305 0.07441104 -0.06663255 0.005172774 0.054644134 -0.056442417 0.005775009
0.12502187 0.040960897 -0.04578589 -0.064874 -0.06134943 0.14389269 0.022506028 0.08373939
0.03263623 -0.017748931 0.13014501 -0.09696449 0.15776062 -0.047786184 -0.02271751 0.03313921
-0.10610423 -0.03470037 0.051872812 0.14005658 0.061956108 -0.005195343 -0.022539409 0.011798131
0.058860086 0.00342065 -0.16008437 0.009150655 0.0440592 -0.1943284 -0.03645697 -0.018837871
-0.15183343 0.2926621 0.061518993 -0.07523619 0.014200473 0.04246967 0.07948216 -0.12653154
0.067342825 0.02659553 -0.036427405 -0.15171812 -0.048325818 0.07964909 -0.043943994 -0.07637353
-0.007767714 0.16848724 -0.052235235 -0.19787338 0.1724785 0.1664732 0.031256974 0.050976075
0.04913276 0.16520712 0.03701846 0.1547764 0.17949542 0.017017575 0.01142274 0.093042284
0.0087132435 -0.0043785605 -0.093437575 -0.050661314 0.00070344517 -0.098765425 0.07101689 -0.10601701
0.047368266 -0.043996625 0.030843802 -0.04673741 -0.15945363 -0.1685918 0.025413182 -0.008370127
0.041465946 -0.0692662 0.04091966 -0.11895288 -0.003930962 -0.06821405 -0.05596671 0.06912821
0.094597474 -0.15663536 0.09429751 0.121174596 0.15398324 -0.1294546 0.07560274 0.08299071
-0.11167402 0.0392875 0.12382313 0.16957338 -0.083438575 -0.020945055 -0.027058924 0.16074756
0.14347762 0.10319152 -0.07575518 0.11611469 -0.027809773 -0.0850073 0.064440265 0.10629888

lstm.weight_hh_l1 f4 [200, 50]
00000000: 5584 18bd 4603 2f3e 1ef5 80bd f32f 84bc
00000010: 75ae aa3d 9730 983d d85f fc3d cade 8c3d
00000020: a1df 94bd f7eb 923d 36f5 bebd 12c5 fa3d
00000030: cdcf e7bd ac3d 2a3d f0fc 103d de9a c2bd
00000040: 626e 063c 85e7 8f3c fc01 82bd 7d35 3b3d
00000050: 96b9 c03d bcd2 023d bffc dc3d 17cd e1bd
00000060: e31e 963d 272d 153e b230 403d 82ea 10be
00000070: 706a 833d 6403 193d 981b db3d 2bc0 e2bd
00000080: 7f12 4fbd 6990 24be 0866 bcbd 94bc 28be
00000090: 59da 423c 9b4c b0bd 0faa 25be 96da 1bbe
000000a0: c920 333d 5a53 7a3d 2c7b 953c 5951 ee3d
000000b0: 517a 09bd a91a 5e3d 2ced 033e 8726 ec3d
000000c0: c079 9abd 0eb7 22bd 2513 203d 817a a6bd
000000d0: 5990 383e aa54 233e 9448 1cbd b4af 10be
000000e0: 0489 06be 2d88 1dbd bcbe 11bd 11f1 b5bd
000000f0: 69e1 923d e7cb 3f3d 2302 afbd a8f9 12bb
00000100: 3265 2f3d b579 063d 81ec 2c3e 6478 ebbc
00000110: f98f 40bd d4e2 973d e35d 1bbe 8805 d23d
00000120: 3d23 88bd 8ce4 f23d 5e41 cfbc 5c2e e43d
00000130: 0d4a b33c 696a 05be 75be 30be 7837 9dbd
00000140: fda5 9dbc a49e d23c 1e5d 0bbe 04d0 943d
00000150: 3152 1a3e 0399 fcbd 50e1 f03d a932 5ebd
00000160: 88a1 4f3d 347f f43c a278 acbd ee87 d4bd
00000170: b440 8bbd 190b 653c 0db9 51bc d595 9fbd
00000180: 5961 8d3d 335c a8bd 5bf5 56bd 3a16 b23d
00000190: 8608 af3d 3883 2cbd 7eb3 f43c fc1b ccbc
000001a0: df34 93bd 24d9 2ebd d572 0ebe d0c6 f0bd
000001b0: 89ad 86bd 0f3a b33a af98 123d 6796 a3bd
000001c0: 3ff6 613c 0aee 923d efc4 2cbd 14d8 fb3b
000001d0: 2c96 063e 78f3 f53c d08e d63d 1e6b da3d
000001e0: 8599 af3d 4456 003e 0d83 fa3d 25f7 d03d
000001f0: e813 a53d 4955 0cbd 5997 dbbc 4786 c33c
00000200: 7b2e 12be 56f6 17be a1f2 b03d dda9 3abd
00000210: 201f 22be 789d c6bd 2f79 043e dd6d 14be
00000220: 05a8 ea3b 646c 0e3d ea36 a4bd 0994 163d
00000230: 1008 05bd 82c8 c03d 6990 5b3d 67c0 0fbe
00000240: 7b58 6ebd 2ffe 33be 8a2b 26bd 68e8 ebbd
00000250: e8f3 ab3d 16f1 0f3d f4f3 b9bd 78d5 41bd
00000260: be66 0cbe a338 073d bb33 bb3c 9dea 0b3d
00000270: 83ae 163e 0977 cfbd bd60 3c3d 078f 813d
00000280: 8892 003e 51a0 bebd 547f 1a3d d93b 5f3d
00000290: 6937 cd3d ce8f 1f3c 8101 a1bd 1528 7ebd
000002a0: abca c7bd 3e94 b13d c99b 8c3c 9d31 673c
000002b0: 6364 bdbd 63c5 bebc 9ea8 9ebd a719 8a3d
000002c0: 41a8 abbd 8b6c baba 37a0 c8bd 6ef3 a83d
000002d0: 0a75 3e3d 30ce 423c d91d 773d d86a ec3d
000002e0: 9884 9f3d da58 fe3d 1714 c6bd 86d3 9dbd
000002f0: fbf8 3c3d 8e11 84bd afa1 a93b 656a fd3c
00000300: 9cb0 61bd 95aa a7bd 3371 0c3d 483c 0b3e
00000310: cd3e 243d 1441 89bd e9ba c8bd ebb1 e1bd
00000320: 1f90 8d3d 3124 4d3d de0c 0eb8 3e3a 903d
00000330: d6a6 3c3c 850b 883d 6f7a 38bd ca2f a0bd
00000340: 7108 653d a9b1 103c bb99 c8bd da2a ea3d
00000350: 5da5 4bbd c6ef 7a3d b068 193e c757 9cbd
00000360: 2c12 bcbd 84f6 1bbd 1f5b 71bd cea6 543c
00000370: 4c97 5fbd 8971 eb3c a130 3bbd 0429 19be
00000380: 136d ac3d 5a13 ecbd 9535 c1bd 78d3 683d
00000390: e941 97bd 501c d9bd b2c7 303d 2e15 42bd
000003a0: 3dff 513d befc 39bc fc36 d93d 5814 18bc
000003b0: 56e0 d5bd 7a60 2fbc 305d 223e f191 d7bd
000003c0: f02c 8f3d 4827 213e 5273 9abd a7d0 5a3d
000003d0: 39e8 073d 10f8 7f3d 1833 2a3d 55c3 263b
000003e0: 735f ac3d 125c 183e 813d bdbd 6701 00be
000003f0: 109e 783d 50fb 31bd 9f06 233e ebc8 37bd
-0.037235577 0.17091092 -0.062967524 -0.016136145 0.08334056 0.07431143 0.12322968 0.06878431
-0.07269216 0.07173913 -0.09324114 0.122446194 -0.11318932 0.04156272 0.03539747 -0.09502195
0.008205028 0.017566452 -0.06348035 0.045705307 0.09410398 0.031939253 0.10790395 -0.11025446
0.0733011 0.14568006 0.04692144 -0.14151958 0.06416786 0.03735675 0.106986225 -0.110718094
-0.05055475 -0.16070713 -0.091991484 -0.16478187 0.011892878 -0.08608361 -0.16178153 -0.15220103
0.04373244 0.061114646 0.01824721 0.116366096 -0.033563916 0.054224644 0.12883443 0.11530786
-0.07542753 -0.039725356 0.039080758 -0.081288345 0.18023814 0.15950266 -0.038155153 -0.14129525
-0.13138205 -0.038459945 -0.03558229 -0.088838704 0.071719 0.046825316 -0.085453294 -0.0022426639
0.042821117 0.032830913 0.16887094 -0.02874393 -0.047012303 0.07416311 -0.15172534 0.10254961
-0.06647346 0.11859998 -0.025299724 0.11141655 0.021885896 -0.13028874 -0.17260154 -0.076765954
-0.019244188 0.025710411 -0.1360974 0.07266238 0.15070416 -0.12333872 0.11761725 -0.054247532
0.050691158 0.029845811 -0.084214464 -0.10377489 -0.067994505 0.013979697 -0.012800467 -0.0779225
0.06903333 -0.082207106 -0.052480083 0.08695646 0.085465476 -0.042117327 0.029870745 -0.024915688
-0.07187819 -0.04268755 -0.13910992 -0.117566705 -0.06576068 0.0013673919 0.03579014 -0.07987671
0.01379162 0.071743086 -0.042179998 0.0076856706 0.13143224 0.030023322 0.10476458 0.10664962
0.085742034 0.12532908 0.12232027 0.10203389 0.080604374 -0.03426102 -0.026805567 0.02386774
-0.14275543 -0.14840063 0.08640028 -0.04557215 -0.15832186 -0.096980035 0.12936853 -0.14495035
0.007161143 0.034771338 -0.080182865 0.03676227 -0.032478392 0.09413244 0.053604517 -0.1403824
-0.05818985 -0.17577432 -0.040568866 -0.11518937 0.08396131 0.035142027 -0.090797335 -0.04732272
-0.13711068 0.033012997 0.022851815 0.03415929 0.14715008 -0.10130126 0.045990694 0.063261084
0.12555897 -0.09307922 0.037719086 0.054500435 0.10020334 0.009738876 -0.07861615 -0.062049944
-0.09755453 0.08670853 0.017164128 0.01411095 -0.09247663 -0.02328748 -0.07747005 0.06743174
-0.08381701 -0.0014223022 -0.097961836 0.082495555 0.046498336 0.011889979 0.0603312 0.11543816
0.07788962 0.12419291 -0.096718006 -0.077063605 0.046135884 -0.06448661 0.005176745 0.030934522
-0.05510007 -0.08186833 0.034287643 0.13597214 0.040098954 -0.06701866 -0.09801275 -0.11020263
0.069122545 0.050083343 -3.386742e-05 0.07042359 0.011514386 0.06642822 -0.045038637 -0.07821615
0.055916253 0.00883142 -0.09794947 0.114339545 -0.04971825 0.061263822 0.14981341 -0.0763393
-0.091831535 -0.038076892 -0.05892479 0.012979222 -0.054587647 0.028740661 -0.045700673 -0.14957052
0.08419242 -0.115271285 -0.09434048 0.056842297 -0.07385618 -0.10601103 0.043159194 -0.04738348
0.051268805 -0.011351762 0.106061906 -0.009282194 -0.10443179 -0.010704154 0.1585586 -0.10525883
0.06990993 0.15737641 -0.07541527 0.053421643 0.03318045 0.06249243 0.041552633 0.0025446017
0.08416643 0.14878872 -0.092402466 -0.12500535 0.060697615 -0.04345256 0.15920494 -0.044869345

lstm.bias_ih_l1 f4 [200]
00000000: 50ce 4dbd f3d4 0fbe 8665 82bd a2c4 823d
00000010: bd04 573c 51ff 153e 49b5 61be 0f68 30bd
00000020: db87 e8bd 4ed5 8ebd 3be6 01be c7a4 e83d
00000030: 003b 973d 8e64 39bc 6e2f 043d 504d a3bd
00000040: 3712 51bd 6c06 0b3d 0730 c33d 4213 fa3d
00000050: 5cda 263e 9ddb 99bd 511d cfbd ac3b 383e
00000060: acdf dbbd 6c9c 003e df3a 38be 44a0 1abd
00000070: 8f4c 6e3c b22a 363c eb12 10be ef6b 1fbe
00000080: 4939 7d3d 7e4e 79bd b560 fd3d 09e7 a63d
00000090: 64a6 9e3d 0cf3 05be 9126 d13d a790 3fbe
000000a0: b75f 35bd 5953 993d f5ee 77bd e008 8636
000000b0: 6b27 bf3d 9ab2 40bc 3729 b6bd bdc5 963d
000000c0: 17f0 c6bc 0fa6 28be a047 5bbd ef27 743d
000000d0: c75b d93d d365 273e abbd 41bd 2a23 183c
000000e0: e367 4ebe 0ccb 07be 6df3 15be fa54 66bd
000000f0: 9443 10be db1c e73c f244 05bc a54a 043e
00000100: c62e f73c 31bb 8cbd 091a ae3d 55b1 113e
00000110: a20c 9dbd dacd f93c f1d7 7ebd 046f 34be
00000120: a517 fc3d 8066 a53d 44f9 4dbd 23b6 2e3e
00000130: 4116 49be 007e 5ebd e5d7 8fb9 88f9 353c
00000140: 214d 8fbd be30 b2bd d6e9 603d 18e3 88bd
00000150: 2bcc 02be 7959 803d f8eb a83d 7f04 413d
00000160: 1de9 fd3d 3ac3 fcbc c41d e83d 4867 053d
00000170: ba2c ebbd 0381 373d 493c 34be 1b7b d0bd
00000180: 012f 3a3d a496 10be fb2f a23d e428 6dbd
00000190: fbf7 fb3d 009d 863d 3043 febd e096 33be
000001a0: 6c10 2c3e 902c 0d3e 52c8 df3d 0314 1bbd
000001b0: 2762 f6bc 5b88 403d 8c8b ecbb d168 dfbd
000001c0: 33b7 5a3c a9bf 9cbd e6d7 083e b4f7 adbd
000001d0: 2e9f f2bd 4822 a23d fe4f d7bd b9ef d5bd
000001e0: e235 453e c0bd fdbd e598 debd 4ce6 173b
000001f0: 4f36 1a3e 7984 e3bd be10 c63b 84c2 293d
00000200: 53a7 3a3e f74b 1b3e 3d56 ea3d 7544 0b3e
00000210: b0a6 c23d 3d23 083e 2580 20be 752f 69bd
00000220: 975c c7bd 061c 96bc 99a2 153e 0857 7c3c
00000230: 4bb9 1a3c 806e 023e 6562 a8bd 09f9 d63d
00000240: dc6d b5bc 2705 133e 5daf 923d 43f2 f7bd
00000250: 3b3e 76bd bc3d d8bd 9d11 02bd 2cde a1bc
00000260: c2c1 a1bd 842b 13bd ec7e 953d 50e1 c33d
00000270: 9ab1 02bd 995f 8bbd e1f6 a4bd 9fcb c3bd
00000280: d83d 9abd 3b38 1f3d 02fb 903d eafe 64bd
00000290: c907 1cbd 51f6 d93c 39b4 113e 8734 8c3d
000002a0: ea00 35be 0838 9d3c 8314 0fbc b2fb 0dbe
000002b0: 1f7b a03d 84aa d6bd 1a88 a2bd 3d74 55bd
000002c0: 18ac 1abe 38d0 2cbe b51d ecbd fd07 b6bd
000002d0: 3690 a5bb cdcd 943c b943 59bd 763b a6bd
000002e0: 6aa7 8f3d 96c0 df3c 5807 f43d cc1b ebbc
000002f0: 2d1f 06be 733a a8bd cfc0 71bd 4e31 993d
00000300: c458 62bb 01ac 5dbd 382b 17be e948 c43c
00000310: 02f0 9b3d 1911 08bd 9729 8e3c e7d0 ddbd
-0.050245583 -0.14046077 -0.0636702 0.06385161 0.013123688 0.14648177 -0.22041811 -0.043067988
-0.113540374 -0.069742784 -0.12685482 0.11359554 0.073843 -0.011315478 0.032271795 -0.079737306
-0.05104276 0.03394167 0.09530645 0.122107044 0.16294235 -0.07512591 -0.101130135 0.17991513
-0.107360214 0.1255967 -0.17991208 -0.037750497 0.01454462 0.011118578 -0.14069717 -0.15568517
0.06182221 -0.06086587 0.12371961 0.08149535 0.0774658 -0.13080996 0.10212434 -0.18707524
-0.044280734 0.074866004 -0.06053062 3.9945444e-06 0.0933369 -0.011761332 -0.0889458 0.07361934
-0.024284406 -0.16469596 -0.053535104 0.059608396 0.10613208 0.16347437 -0.047300022 0.0092857275
-0.20156817 -0.1326105 -0.14643641 -0.056233384 -0.14088279 0.028212002 -0.008134114 0.129191
0.03017367 -0.068716414 0.085010596 0.14227803 -0.07668425 0.030493665 -0.062217657 -0.17620474
0.12309197 0.08076191 -0.050286546 0.17061667 -0.19637395 -0.05431938 -0.0002743594 0.011106856
-0.06997133 -0.08700703 0.054910503 -0.0668394 -0.12773196 0.062670656 0.082481325 0.04712343
0.123979785 -0.03085481 0.11333802 0.0325692 -0.1148314 0.04480077 -0.17601122 -0.101797305
0.045454983 -0.14119965 0.07919308 -0.057900324 0.12303158 0.06572914 -0.12415159 -0.17538023
0.1680314 0.1378653 0.1092688 -0.03786088 -0.0300761 0.04700504 -0.0072187837 -0.10908664
0.013349342 -0.07653744 0.13363609 -0.08494511 -0.11846767 0.07916695 -0.10513304 -0.10446114
0.19258836 -0.123897076 -0.10869006 0.002317804 0.1505978 -0.111092515 0.0060444763 0.04144527
0.18227892 0.15165697 0.1144223 0.13600333 0.09504449 0.13294692 -0.15673883 -0.056930024
-0.09734457 -0.01832391 0.14612807 0.015401609 0.009443591 0.12737465 -0.08221892 0.104967184
-0.022147112 0.14357434 0.07162354 -0.12106755 -0.06011794 -0.1055865 -0.03175508 -0.01975926
-0.078982845 -0.03593017 0.07299599 0.09564459 -0.031907655 -0.06805343 -0.08054901 -0.09560322
-0.07531327 0.038871985 0.07079126 -0.055907167 -0.038093362 0.02660671 0.14228906 0.06845956
-0.1767613 0.019191757 -0.008732918 -0.13865545 0.078359835 -0.10481742 -0.079361156 -0.052112807
-0.15104711 -0.16876304 -0.11529104 -0.088882424 -0.0050525917 0.01816454 -0.0530431 -0.0811681
0.070143536 0.027313512 0.11915463 -0.028699778 -0.1309783 -0.08214273 -0.059021767 0.07480107
-0.0034537772 -0.054119114 -0.1476258 0.023960548 0.07614137 -0.03321943 0.017353816 -0.108308606

lstm.bias_hh_l1 f4 [200]
00000000: 4254 39bd baad 06bd 812e 59bc ac3b a43d
00000010: 871b dd3c c30b 6d3c 8518 1ebe 06ce 643d
00000020: 4096 8dbd f47f 3e3d c00f 06be def3 febd
00000030: c67d 3a3e e38b 9a3c 0c34 6fbd d8c3 84bd
00000040: b8e6 aa3d e339 9d3d ff02 e3bc a7ee 7f3d
00000050: 374c 7cbd aa38 47be ad33 043e f20c 133d
00000060: 52e8 12bd f311 3b3d 19b1 323d a3af 1dbe
00000070: 6214 4a3d f28c b8bd 0d41 8cbd b9d4 3e3d
00000080: f3e4 6abd 77fb 9fbb cb3e e1bd 3346 14be
00000090: 9fbe 1bbd b6c6 bc3d f530 183e ab2e 21be
000000a0: 191e 7a3b 1f07 ebbd e140 6a3c 4c5b f63d
000000b0: 51aa 453d dcfe 29ba 96a6 513c 7d97 523a
000000c0: 31df a33d 548c 94bd dade 1bbe b9c0 1fbe
000000d0: 8f1b 4e3d ad1f b33d 82f0 133e b79b 0c3d
000000e0: 792f 8a3d 6f63 903d e527 813d 336c 96bd
000000f0: a46c 1b3d 2ca8 f5bd 9fc9 333d 8090 cc3d
00000100: dbfe 313d 4d8a b0bd 526c 103e 4c8b 943d
00000110: 9d23 5b3c 76c5 f03c 65b0 a03d 6316 39be
00000120: 59b8 04be 6c42 70bd 1a20 75bd 5daa 143e
00000130: 51cd 903c e168 94bd 7e6b 933a 0cb4 513c
00000140: d8e3 7d3d f120 eb3c 7484 223e 70fc a5bd
00000150: 4d6e 9abd 4727 513d cff2 33bd 524b 08be
00000160: a36a 833c 2337 26bc 6ea5 babd 9178 093e
00000170: 5ce7 cc3d 4aae a63d 06c1 51bd 0938 0c3c
00000180: a9a9 24be 2d60 06bb 99c1 f8bd bfc5 983d
00000190: 7a3b 0ebd c87e a43d 24f2 eebd 2483 b53c
000001a0: b665 343e 9e63 d63c 4a40 ffbd 5f42 b83d
000001b0: 52d9 1e3d 779d e3bd cfab 34bd 366a 09bc
000001c0: 4cb5 123e 30b9 00be b487 9f3c 682b 67bd
000001d0: bb84 14be 9042 c3bb 28f8 e13c de73 67bd
000001e0: 3570 1f3e da51 b5bd 3649 e63b 5c2a 15be
000001f0: a3f5 383e 9fd4 183d b450 a1bc 4137 bebd
00000200: e3d5 56bd 2825 35bc c542 833b 9bee f1bd
00000210: 5f81 1e3e 1540 3f3e 2f43 443c bfb0 123e
00000220: 9568 02bd de5d f9bd 3908 703d 39a5 41bd
00000230: 9ec5 19be 89f6 5a3d 5fd8 d9bd bde1 073e
00000240: 206d c33d 6485 82ba a253 11bd a33a a5bc
00000250: 1515 303e 5d1a 803d f2b8 6bbc 554b 423c
00000260: 9d26 1a3d 23c5 b93c 0a50 c93d 5aef eebd
00000270: 3cd1 233d 7e03 973b 48f9 4fbd 1924 abbd
00000280: 114a 28bd 694a 4ebd 3a4d c53d cbb4 e13b
00000290: 639c 7b3d bc82 63bc 6f85 333c 1c2a 01be
000002a0: 0b07 f83c 376b 56bd b99f 8d3d d648 a8bd
000002b0: 80bc ea3c d359 013e bf8d 163d 719f fbbd
000002c0: f88a c03c e092 ad3d 76d4 00bc b5fa a5bd
000002d0: 80a8 2b3b ee0d 0dbe b020 c33d 0ca7 45bc
000002e0: 4c40 f03d 89f5 16be f1f1 963c 5222 aa3d
000002f0: 4b51 a63d f73c c6bd bb62 4bbd 1d85 5f3c
00000300: 7d95 d2bc 1118 debd b99a cabd c488 0bbe
00000310: 717e 59bd 5d22 0a3a 02ff 1ebd b3ea 9d3b
-0.04524637 -0.032880522 -0.013255716 0.08019194 0.026990665 0.014468136 -0.15439041 0.05586054
-0.069134235 0.046508744 -0.13091946 -0.12448858 0.18212041 0.018865531 -0.058399245 -0.06482667
0.08344787 0.07677057 -0.02771139 0.062483456 -0.06159612 -0.1945521 0.12910338 0.035901017
-0.03586609 0.045671415 0.043625925 -0.15399031 0.049335845 -0.09011258 -0.06848345 0.046589587
-0.05734725 -0.004882272 -0.10998305 -0.14479904 -0.038023587 0.092175886 0.14862426 -0.15740459
0.0038164912 -0.114759676 0.014297695 0.12029132 0.04825813 -0.00064848154 0.012796065 0.0008033438
0.08001555 -0.07253328 -0.1522173 -0.15600862 0.05031925 0.08746276 0.14447215 0.03432819
0.06747336 0.070502155 0.063064374 -0.07344856 0.037945405 -0.11994967 0.043893453 0.09988499
0.04345594 -0.08620129 0.14103821 0.07253131 0.01337519 0.029391032 0.078461446 -0.18074946
-0.12960948 -0.058657095 -0.059845068 0.14518113 0.017676027 -0.072465666 0.0011247245 0.012799274
0.061984867 0.028702231 0.1587084 -0.08104789 -0.075405695 0.05106285 -0.043932732 -0.13309982
0.01604206 -0.010144982 -0.091135845 0.13424899 0.10005066 0.08138712 -0.051209472 0.008558282
-0.16080345 -0.0020504103 -0.12146301 0.07459592 -0.03472469 0.08031994 -0.116672784 0.02215726
0.17616925 0.026170548 -0.12463434 0.08997034 0.03878147 -0.111140184 -0.044109162 -0.008387139
0.14326972 -0.12570643 0.019473888 -0.05643788 -0.14503758 -0.0059588626 0.02758415 -0.056506984
0.15570147 -0.088535026 0.0070277704 -0.1456694 0.18062453 0.037312146 -0.019691803 -0.092878826
-0.052450072 -0.011056222 0.0040057623 -0.118130885 0.15479039 0.18676789 0.011978908 0.14325236
-0.03183802 -0.12176107 0.05860159 -0.04727671 -0.15016791 0.05345777 -0.10636973 0.13269706
0.09542298 -0.0009957966 -0.03548015 -0.020169562 0.17195542 0.062550284 -0.014387356 0.011858781
0.03763448 0.02267701 0.09829719 -0.116667464 0.039994463 0.0046085706 -0.050774843 -0.083564945
-0.04108626 -0.05036393 0.096338704 0.0068880073 0.06142844 -0.01388615 0.010957106 -0.1261372
0.030276796 -0.05234834 0.0691523 -0.08217017 0.028654337 0.12631921 0.036756273 -0.122862704
0.023503765 0.0847528 -0.007863155 -0.08104459 0.0026192963 -0.13774845 0.09527719 -0.012063753
0.11731014 -0.14742102 0.018425914 0.08307327 0.08120974 -0.09679597 -0.049654704 0.0136425765
-0.025706047 -0.10844434 -0.09892792 -0.1362639 -0.0530991 0.0005269403 -0.038817413 0.004819238

fc.weight f4 [24, 50]
00000000: f192 a7bd 24b6 0bbe 8896 0a3b ffe7 353d
00000010: a9e5 363e 95d5 62bd 01b5 073e a277 b4bc
00000020: 08c2 253d 0ddb b1bd 6f31 e33d 80a4 f7bd
00000030: 13ea 6dbd e9f0 bbbd 296b 07bd fe56 c0bd
00000040: dedb 33be 8f65 263d 5b1d d5bc ec57 2ebc
00000050: 35ce 293e 72e0 633c 5ee3 4c3d 6ce0 41be
00000060: 5da7 5ebd aa1e 99bc de2f 9d3b 36eb 06bd
00000070: 5249 02bc e4ba f93d 52e7 f9bc ee01 043e
00000080: 6506 ca3d df37 943d fc22 8abc d908 953d
00000090: d3ac 933d dfbe 163e 0042 e33d 553d 153e
000000a0: 83cb c23c 28ba f33d 27e0 19be 5d2e 433e
000000b0: 0ab4 123c 3ec9 a53d f7ee 70bd 8b42 353d
000000c0: 082a 1d3e 8278 8a3d fc2d 913d 0857 003e
000000d0: 1e8f 953d 478f e83c cb6b 123d 6a83 a1bd
000000e0: 5ce2 1abd 44b5 593d 1f34 973c b29e bf3c
000000f0: b6d5 00bd 9ca4 933d cdcc 31bc b727 5e3d
00000100: 6879 05bd 88e6 b5bd 0fa2 28be 2dc1 d73d
00000110: 1822 d03c 352b fabd 266b 0c3e b4c9 803d
00000120: 94e9 1abe 95cd f8bd 4a41 b93d 9a3f d1bd
00000130: 1480 9f3d f2c8 00bd 0b77 713b 006a ff3d
00000140: 356c 1a3e c471 293c d3c5 b93d e2d3 97bd
00000150: 0991 7abd 8860 c63c ecf8 423d e2f4 c43d
00000160: 48f2 b2ba 39e3 bbbd bf6c 06be 7923 363c
00000170: 1011 f8bd 247a d23d d4cc b53d 6832 993d
00000180: 384f 90bd 13a6 91bd 576c dfbd 8ce2 cf3d
00000190: 7885 bf3d 8ec9 aabd 5c0d eabc 14e9 e0bc
000001a0: e9d9 40bd 9a3f 3b3e fdab a8bd e86a 1d3e
000001b0: 5132 70bd 8a71 06be e6c2 c13d 30c6 cfbc
000001c0: 87e0 043e fca9 4fbd 6d35 593d 84fa 5bbd
000001d0: 809e 43be ce61 06bd 4b99 efbd a565 01be
000001e0: 5cd7 373e 16cc 923d 9c39 e4bd be99 8f3c
000001f0: 2ebd 97bd b820 71bc 18b7 b0bd b06b 0b3d
00000200: d8a2 4dbc cc71 ce3b 14a0 a1bc ed1b 203e
00000210: 2831 653d 8363 e23d 09e2 e2bb c751 51bd
00000220: 1afa fcbc 8059 af3d d069 903d 62b3 a23d
00000230: 8638 f3bd ff98 5a3d f857 afbd 2f2b 073e
00000240: bb6c e53d b5f8 353e 0e8f dc3d 2fcf 083d
00000250: a677 153e fda9 3f3e ffa8 20bd eabf ed3b
00000260: be73 02bd a7c8 63bd 8a50 143d 8749 bc3d
00000270: 926e bebd 046c 35bd b9af 3e3d e84d f2bc
00000280: 9ccf 453d f131 d63d c5a7 ed3d 116c 85bd
00000290: 7e33 05bd b06a ccbd befd 2b3d b139 b53c
000002a0: ebfa 523d c63a cbbd ea35 5a3b 6513 7fbc
000002b0: c71f 15be 3612 1fbe 5884 b63d fc73 7e3d
000002c0: 6fe7 1ebe 4705 a93c 043c 353d 2274 90bd
000002d0: df4d 8a3d 0ba5 113e a829 8abd bf5d 053e
000002e0: d02b b6bc 4e87 afbc 3403 a0bd 59a8 503e
000002f0: 2a34 293b e96d cbbd 4e12 5ebd c29f 6e3d
00000300: ca34 0abd 1e94 293e 05c0 62bd 1f05 13bc
00000310: 01f9 d1bd b787 853d 2496 163e 5edb ab3c
00000320: 1456 0d3e 2786 2fba 4e21 83bd 5498 41bd
00000330: d6db d43d 4990 3d3d 2243 8f3d e855 253e
00000340: c362 9d3a 569f 833d c73d 813d 1223 7ebd
00000350: bef9 023e 59af 21be b4e4 16bd b5ec efbd
00000360: a697 14be 93b1 a83c 2330 f33d 7db1 93bd
00000370: ec5d 74bd 5229 74bd e072 713c 4d6b a23d
00000380: d3e6 233e 30c7 0cbe 255c 76bd 0739 483d
00000390: ff8f 303e 9f59 833d 32a5 c63d 38b5 603c
000003a0: 1b28 243e 69b1 c43d 61cd cc3b efcd 0a3e
000003b0: d8d6 06bc 9e44 113e cd2f 0c3e 0e91 133d
000003c0: 885a f7bc 57fd a93d 1633 b6bd 7761 ed3d
000003d0: c8b8 a43c 21e6 903c e2b5 d7bd ea1c e1bd
000003e0: 9283 babd aa5b 573d a7e6 7f3d 081a c53c
000003f0: 8afa acbc 848a 6ebd b5f0 143e 1871 053e
-0.08182324 -0.136437 0.0021146853 0.0444107 0.17861046 -0.05537947 0.13252641 -0.022029702
0.040468246 -0.08684359 0.11093413 -0.12091923 -0.05808456 -0.09176809 -0.03306118 -0.093915924
-0.17564341 0.040624198 -0.026014974 -0.010641079 0.16582568 0.013908492 0.05002152 -0.18933266
-0.05435883 -0.01869138 0.004796966 -0.03293916 -0.007952051 0.1219385 -0.03050581 0.12891361
0.09864501 0.07237219 -0.016862385 0.07277078 0.07210698 0.14721249 0.11096573 0.14574178
0.023778683 0.11900741 -0.15026914 0.19060655 0.0089540575 0.080950245 -0.058821645 0.044252913
0.15348065 0.06761266 0.07088849 0.125332 0.07302688 0.028388632 0.03574733 -0.07886393
-0.03781353 0.053151384 0.01845747 0.023391102 -0.03145381 0.07209131 -0.010852051 0.054237094
-0.032586485 -0.08881861 -0.1646807 0.10534892 0.025406882 -0.12215272 0.13712749 0.06288472
-0.15128165 -0.12148587 0.09045656 -0.10217209 0.07788101 -0.031441636 0.0036844637 0.1247139
0.1508034 0.010342065 0.09070935 -0.0741346 -0.061173473 0.024215952 0.04760067 0.0961702
-0.0013652528 -0.09174199 -0.13127421 0.011116856 -0.121126294 0.10277203 0.088769585 0.07480317
-0.0704636 -0.07111754 -0.10909336 0.10150632 0.09351629 -0.08339225 -0.028570823 -0.02745489
-0.047082815 0.18285981 -0.08235929 0.15372813 -0.058641735 -0.13129249 0.09461002 -0.025363058
0.12976275 -0.05069922 0.053029466 -0.053705707 -0.19103432 -0.032808118 -0.1169916 -0.1263643
0.17953247 0.071678326 -0.111438006 0.017529365 -0.0740913 -0.014717273 -0.08628672 0.034038246
-0.012551032 0.0063001867 -0.019729652 0.15635653 0.055955082 0.110541366 -0.006923918 -0.05110338
-0.030880976 0.08561993 0.07051432 0.07944371 -0.11876015 0.053368565 -0.085617006 0.13200067
0.11202379 0.17770655 0.10769473 0.03340071 0.14596424 0.18717189 -0.039223667 0.007255544
-0.03184866 -0.05561128 0.03620962 0.09193712 -0.09298433 -0.044292465 0.0465543 -0.029578164
0.048293695 0.10458744 0.11604265 -0.06514753 -0.03251981 -0.099812865 0.041990034 0.022122236
0.051508825 -0.099233195 0.0033296295 -0.015568589 -0.14562903 -0.1553429 0.08911961 0.06212233
-0.15517972 0.0206324 0.04424669 -0.070534006 0.06753134 0.14223115 -0.067462265 0.13024043
-0.022237688 -0.021426823 -0.07813111 0.2037672 0.0025818446 -0.09933073 -0.054216675 0.058257826
-0.03374175 0.16560408 -0.055358905 -0.008973389 -0.10252572 0.06520026 0.14705712 0.020978626
0.13802367 -0.00066957105 -0.06402837 -0.047264412 0.10393493 0.04628018 0.069952264 0.16146052
0.0012007583 0.06426875 0.06310611 -0.062045164 0.12790582 -0.15789546 -0.036839202 -0.1171507
-0.14510974 0.020592486 0.11874416 -0.072115876 -0.059659883 -0.05960972 0.014736861 0.07930622
0.16006021 -0.13747859 -0.06014647 0.04888251 0.1724243 0.06413578 0.09699477 0.013715081
0.16030924 0.09604151 0.006250069 0.1355512 -0.008229934 0.14186332 0.1369011 0.036027007
-0.030194536 0.08300274 -0.088964626 0.115908556 0.020107642 0.017687859 -0.10532738 -0.10991843
-0.09107126 0.052577652 0.062475827 0.024060264 -0.02111556 -0.058237568 0.14544947 0.13031423

fc.bias f4 [24]
00000000: 36d3 b7bc 9635 0f3e 90fd 02bd 4dad 323e
00000010: 19ea 94bd cac7 143d 3ee3 68bd 758e 0ebd
00000020: dafc 223d 4064 093e 94fa 243a b18e 213e
00000030: 4529 2b3d e862 84bc 9bd3 fc3c f2b6 253e
00000040: cc8f 22bd 8652 f33b 6e61 3a3e 8d94 97bd
00000050: 9db2 6abd 0db5 fb3d 4d1f 923d 673d 323e
-0.02243958 0.13985285 -0.031980097 0.17448922 -0.07271213 0.036323346 -0.05685734 -0.034803826
0.03979192 0.13417149 0.00062934426 0.15777089 0.041787405 -0.016160443 0.03086262 0.1618307
-0.039687917 0.007425609 0.18201229 -0.07401381 -0.057299245 0.12290392 0.071348764 0.17406236
